nohup: ignoring input
pygame 2.1.2 (SDL 2.0.16, Python 3.8.12)
Hello from the pygame community. https://www.pygame.org/contribute.html
INFO:learner_logger:[RANK0]: DI-engine DRL Policy
GoBiggerPPoModel(
  (activation): ReLU(inplace=True)
  (encoder): Encoder(
    (scalar_encoder): Sequential(
      (0): Linear(in_features=5, out_features=32, bias=True)
      (1): ReLU(inplace=True)
      (2): Linear(in_features=32, out_features=128, bias=True)
      (3): ReLU(inplace=True)
    )
    (food_encoder): Sequential(
      (0): Conv2d(2, 32, kernel_size=(5, 5), stride=(4, 4), padding=(2, 2))
      (1): ReLU(inplace=True)
      (2): Conv2d(32, 64, kernel_size=(3, 3), stride=(2, 2), padding=(1, 1))
      (3): ReLU(inplace=True)
      (4): Conv2d(64, 128, kernel_size=(1, 1), stride=(1, 1))
      (5): ReLU(inplace=True)
    )
    (food_relation_encoder): Sequential(
      (0): Linear(in_features=150, out_features=64, bias=True)
      (1): ReLU(inplace=True)
      (2): Linear(in_features=64, out_features=128, bias=True)
      (3): ReLU(inplace=True)
    )
    (thorn_relation_encoder): Sequential(
      (0): Linear(in_features=12, out_features=32, bias=True)
      (1): ReLU(inplace=True)
      (2): Linear(in_features=32, out_features=128, bias=True)
      (3): ReLU(inplace=True)
    )
    (clone_encoder): Sequential(
      (0): Linear(in_features=17, out_features=32, bias=True)
      (1): ReLU(inplace=True)
      (2): Linear(in_features=32, out_features=128, bias=True)
      (3): ReLU(inplace=True)
    )
    (clone_relation_encoder): Sequential(
      (0): Linear(in_features=12, out_features=32, bias=True)
      (1): ReLU(inplace=True)
      (2): Linear(in_features=32, out_features=128, bias=True)
      (3): ReLU(inplace=True)
    )
    (gcn): RelationGCN(
      (act): ReLU(inplace=True)
      (thorn_relation_layers): Sequential(
        (0): Linear(in_features=128, out_features=128, bias=True)
        (1): ReLU(inplace=True)
      )
      (clone_relation_layers): Sequential(
        (0): Linear(in_features=128, out_features=128, bias=True)
        (1): ReLU(inplace=True)
      )
      (agg_relation_layers): Sequential(
        (0): Linear(in_features=512, out_features=128, bias=True)
        (1): ReLU(inplace=True)
      )
    )
    (agg_encoder): Sequential(
      (0): Linear(in_features=384, out_features=128, bias=True)
      (1): ReLU(inplace=True)
      (2): Linear(in_features=128, out_features=32, bias=True)
      (3): ReLU(inplace=True)
    )
  )
  (actor_head): DiscreteHead(
    (Q): Sequential(
      (0): Sequential(
        (0): Linear(in_features=32, out_features=32, bias=True)
        (1): ReLU(inplace=True)
        (2): Linear(in_features=32, out_features=32, bias=True)
        (3): ReLU(inplace=True)
      )
      (1): Sequential(
        (0): Linear(in_features=32, out_features=16, bias=True)
      )
    )
  )
  (critic_head): RegressionHead(
    (main): Sequential(
      (0): Linear(in_features=32, out_features=32, bias=True)
      (1): ReLU(inplace=True)
    )
    (last): Linear(in_features=32, out_features=1, bias=True)
  )
  (actor): ModuleList(
    (0): Encoder(
      (scalar_encoder): Sequential(
        (0): Linear(in_features=5, out_features=32, bias=True)
        (1): ReLU(inplace=True)
        (2): Linear(in_features=32, out_features=128, bias=True)
        (3): ReLU(inplace=True)
      )
      (food_encoder): Sequential(
        (0): Conv2d(2, 32, kernel_size=(5, 5), stride=(4, 4), padding=(2, 2))
        (1): ReLU(inplace=True)
        (2): Conv2d(32, 64, kernel_size=(3, 3), stride=(2, 2), padding=(1, 1))
        (3): ReLU(inplace=True)
        (4): Conv2d(64, 128, kernel_size=(1, 1), stride=(1, 1))
        (5): ReLU(inplace=True)
      )
      (food_relation_encoder): Sequential(
        (0): Linear(in_features=150, out_features=64, bias=True)
        (1): ReLU(inplace=True)
        (2): Linear(in_features=64, out_features=128, bias=True)
        (3): ReLU(inplace=True)
      )
      (thorn_relation_encoder): Sequential(
        (0): Linear(in_features=12, out_features=32, bias=True)
        (1): ReLU(inplace=True)
        (2): Linear(in_features=32, out_features=128, bias=True)
        (3): ReLU(inplace=True)
      )
      (clone_encoder): Sequential(
        (0): Linear(in_features=17, out_features=32, bias=True)
        (1): ReLU(inplace=True)
        (2): Linear(in_features=32, out_features=128, bias=True)
        (3): ReLU(inplace=True)
      )
      (clone_relation_encoder): Sequential(
        (0): Linear(in_features=12, out_features=32, bias=True)
        (1): ReLU(inplace=True)
        (2): Linear(in_features=32, out_features=128, bias=True)
        (3): ReLU(inplace=True)
      )
      (gcn): RelationGCN(
        (act): ReLU(inplace=True)
        (thorn_relation_layers): Sequential(
          (0): Linear(in_features=128, out_features=128, bias=True)
          (1): ReLU(inplace=True)
        )
        (clone_relation_layers): Sequential(
          (0): Linear(in_features=128, out_features=128, bias=True)
          (1): ReLU(inplace=True)
        )
        (agg_relation_layers): Sequential(
          (0): Linear(in_features=512, out_features=128, bias=True)
          (1): ReLU(inplace=True)
        )
      )
      (agg_encoder): Sequential(
        (0): Linear(in_features=384, out_features=128, bias=True)
        (1): ReLU(inplace=True)
        (2): Linear(in_features=128, out_features=32, bias=True)
        (3): ReLU(inplace=True)
      )
    )
    (1): DiscreteHead(
      (Q): Sequential(
        (0): Sequential(
          (0): Linear(in_features=32, out_features=32, bias=True)
          (1): ReLU(inplace=True)
          (2): Linear(in_features=32, out_features=32, bias=True)
          (3): ReLU(inplace=True)
        )
        (1): Sequential(
          (0): Linear(in_features=32, out_features=16, bias=True)
        )
      )
    )
  )
  (critic): ModuleList(
    (0): Encoder(
      (scalar_encoder): Sequential(
        (0): Linear(in_features=5, out_features=32, bias=True)
        (1): ReLU(inplace=True)
        (2): Linear(in_features=32, out_features=128, bias=True)
        (3): ReLU(inplace=True)
      )
      (food_encoder): Sequential(
        (0): Conv2d(2, 32, kernel_size=(5, 5), stride=(4, 4), padding=(2, 2))
        (1): ReLU(inplace=True)
        (2): Conv2d(32, 64, kernel_size=(3, 3), stride=(2, 2), padding=(1, 1))
        (3): ReLU(inplace=True)
        (4): Conv2d(64, 128, kernel_size=(1, 1), stride=(1, 1))
        (5): ReLU(inplace=True)
      )
      (food_relation_encoder): Sequential(
        (0): Linear(in_features=150, out_features=64, bias=True)
        (1): ReLU(inplace=True)
        (2): Linear(in_features=64, out_features=128, bias=True)
        (3): ReLU(inplace=True)
      )
      (thorn_relation_encoder): Sequential(
        (0): Linear(in_features=12, out_features=32, bias=True)
        (1): ReLU(inplace=True)
        (2): Linear(in_features=32, out_features=128, bias=True)
        (3): ReLU(inplace=True)
      )
      (clone_encoder): Sequential(
        (0): Linear(in_features=17, out_features=32, bias=True)
        (1): ReLU(inplace=True)
        (2): Linear(in_features=32, out_features=128, bias=True)
        (3): ReLU(inplace=True)
      )
      (clone_relation_encoder): Sequential(
        (0): Linear(in_features=12, out_features=32, bias=True)
        (1): ReLU(inplace=True)
        (2): Linear(in_features=32, out_features=128, bias=True)
        (3): ReLU(inplace=True)
      )
      (gcn): RelationGCN(
        (act): ReLU(inplace=True)
        (thorn_relation_layers): Sequential(
          (0): Linear(in_features=128, out_features=128, bias=True)
          (1): ReLU(inplace=True)
        )
        (clone_relation_layers): Sequential(
          (0): Linear(in_features=128, out_features=128, bias=True)
          (1): ReLU(inplace=True)
        )
        (agg_relation_layers): Sequential(
          (0): Linear(in_features=512, out_features=128, bias=True)
          (1): ReLU(inplace=True)
        )
      )
      (agg_encoder): Sequential(
        (0): Linear(in_features=384, out_features=128, bias=True)
        (1): ReLU(inplace=True)
        (2): Linear(in_features=128, out_features=32, bias=True)
        (3): ReLU(inplace=True)
      )
    )
    (1): RegressionHead(
      (main): Sequential(
        (0): Linear(in_features=32, out_features=32, bias=True)
        (1): ReLU(inplace=True)
      )
      (last): Linear(in_features=32, out_features=1, bias=True)
    )
  )
)
***********iterations:0*****************
INFO:learner_logger:[RANK0]: === Training Iteration 0 Result ===
INFO:learner_logger:
+-------+------------+----------------+-----------------+----------------+------------------+-------------+--------------+---------------+--------------+---------------+----------------+-----------------+
| Name  | cur_lr_avg | total_loss_avg | policy_loss_avg | value_loss_avg | entropy_loss_avg | adv_max_avg | adv_mean_avg | approx_kl_avg | clipfrac_avg | value_max_avg | value_mean_avg | reward_mean_avg |
…
